…
ount":null,"metadata":{"id":"CT9Swz7kiGSR","colab":{"base_uri":"https://localhost:8080/"},"executionInfo":{"status":"ok","timestamp":1707220562055,"user_tz":-60,"elapsed":1429,"user":{"displayName":"Alessandro D'Amico","userId":"08059662268122211949"}},"outputId":"aed02443-3dc6-4c40-f7fc-ae85eb695f6b"},"outputs":[{"output_type":"stream","name":"stdout","text":["----------------------------------------------------------------\n","        Layer (type)               Output Shape         Param #\n","================================================================\n","            Conv2d-1          [128, 64, 64, 64]           1,728\n","       BatchNorm2d-2          [128, 64, 64, 64]             128\n","         LeakyReLU-3          [128, 64, 64, 64]               0\n","         ConvBlock-4          [128, 64, 64, 64]               0\n","            Conv2d-5         [128, 128, 32, 32]          73,728\n","       BatchNorm2d-6         [128, 128, 32, 32]             256\n","         LeakyReLU-7         [128, 128, 32, 32]               0\n","         ConvBlock-8         [128, 128, 32, 32]               0\n","            Conv2d-9         [128, 256, 16, 16]         294,912\n","      BatchNorm2d-10         [128, 256, 16, 16]             512\n","        LeakyReLU-11         [128, 256, 16, 16]               0\n","        ConvBlock-12         [128, 256, 16, 16]               0\n","           Conv2d-13           [128, 512, 8, 8]       1,179,648\n","      BatchNorm2d-14           [128, 512, 8, 8]           1,024\n","        LeakyReLU-15           [128, 512, 8, 8]               0\n","        ConvBlock-16           [128, 512, 8, 8]               0\n","          Flatten-17               [128, 32768]               0\n","           Linear-18                 [128, 100]       3,276,900\n","           Linear-19                 [128, 100]       3,276,900\n","           Linear-20               [128, 32768]       3,309,568\n","          Reshape-21           [128, 512, 8, 8]               0\n","         Upsample-22         [128, 512, 16, 16]               0\n","  ReflectionPad2d-23         [128, 512, 18, 18]               0\n","           Conv2d-24         [128, 256, 16, 16]       1,179,904\n","           Conv2d-25         [128, 256, 16, 16]       1,048,576\n","      BatchNorm2d-26         [128, 256, 16, 16]             512\n","        LeakyReLU-27         [128, 256, 16, 16]               0\n","  ResizeConvBlock-28         [128, 256, 16, 16]               0\n","         Upsample-29         [128, 256, 32, 32]               0\n","  ReflectionPad2d-30         [128, 256, 34, 34]               0\n","           Conv2d-31         [128, 128, 32, 32]         295,040\n","           Conv2d-32         [128, 128, 32, 32]         262,144\n","      BatchNorm2d-33         [128, 128, 32, 32]             256\n","        LeakyReLU-34         [128, 128, 32, 32]               0\n","  ResizeConvBlock-35         [128, 128, 32, 32]               0\n","         Upsample-36         [128, 128, 64, 64]               0\n","  ReflectionPad2d-37         [128, 128, 66, 66]               0\n","           Conv2d-38          [128, 64, 64, 64]          73,792\n","           Conv2d-39          [128, 64, 64, 64]          65,536\n","      BatchNorm2d-40          [128, 64, 64, 64]             128\n","        LeakyReLU-41          [128, 64, 64, 64]               0\n","  ResizeConvBlock-42          [128, 64, 64, 64]               0\n","UpsamplingNearest2d-43        [128, 64, 128, 128]               0\n","           Conv2d-44         [128, 3, 128, 128]           1,731\n","             Tanh-45         [128, 3, 128, 128]               0\n","================================================================\n","Total params: 14,342,923\n","Trainable params: 14,342,923\n","Non-trainable params: 0\n","----------------------------------------------------------------\n","Input size (MB): 24.00\n","Forward/backward pass size (MB): 7267.70\n","Params size (MB): 54.71\n","Estimated Total Size (MB): 7346.41\n","----------------------------
…
